models/ballet_model.tflite (tflite, 273124 bytes, 8 tensors)

arith.constant f4 [14, 64]
00000000: eb04 15bf cd1f bdbe 4c67 c6be 06c2 07bf
00000010: a0df 473e 074f 553e 7d1e 19bf 523f 1e3e
00000020: b702 923d b766 533e 0b6b 21bf 5529 03bf
00000030: b2ce cebd fa46 b13d ca92 b43e 7e11 02bf
00000040: 34f5 d33e 8ea8 493e 8ca5 a4bd 0403 d8be
00000050: 4b3d 3b3e f30f 20be 6874 c4be ca36 d1be
00000060: 3194 8bbf 4785 373d d87c af3e b356 793b
00000070: c81d 913d b4fa 843d 4168 01bf 75fb d9be
00000080: 2606 1bbd 40b2 fd3d d3bd 93be 4c31 49be
00000090: c5bf a33e 47cb 9abd 64b0 f23e fd4a 1f3d
000000a0: 157f e2be cc8e c23e 1f3c 00be 8808 a8be
000000b0: c55b e63e 85ac ebbd a6f0 303e 485d fd3e
000000c0: a61c 79bf c4b9 6bbe 17e2 7a3e 833a c43d
000000d0: c81a b1be 7182 b53e 3f50 41bf 9cf9 1d3e
000000e0: bedb f03e 4a44 f43e 40b8 b5bd 38d2 47bd
000000f0: bd31 1fbe d46e 41bf cd76 ce3e 2ab9 07bf
00000100: 20ef ac3d 6a81 bc3e f487 afbd fa3c 4ebf
00000110: 9e25 37be 6eeb 843e 456f a9be 61c0 e1bd
00000120: 2e60 a3be 82a0 213f b73c 05be 30a3 d3be
00000130: dd0d 9abc 10b6 2d3e a81a 913e 02b8 c13e
00000140: 72e5 833e 56a7 f9bd 4936 89bc cff0 2b3e
00000150: 4c26 acbe cf0c c6be 4748 7a3e 8be9 3ebe
00000160: 74e6 02be 3604 403e 20df 3c3e c76c 8ebf
00000170: 7b47 d8bd 98cd 773e a78e b5bd cee3 cb3d
00000180: d647 ccbe 3a73 4d3e 6895 8e3e a9b0 b03e
00000190: f1f0 c33e 7b05 a6be 4eca 853e 9890 91bd
000001a0: 991b ccbe bc8e 803d 994f d7be 6da1 843e
000001b0: 660c b6be 0240 36be 4744 c43d dc0a 7bbf
000001c0: b14a c13e 6cec 6f3e 0bac 1fbf 7cac 52bc
000001d0: 38a8 20bd bcda cb3d f3b0 a93d 483d b33e
000001e0: 13eb 05be 5a2a e9bd 24dd 013f dd36 82be
000001f0: 099c 55be 801c 06bf bfb6 303e 1e2f 03bf
00000200: f145 703f 9522 973e 755f d8bd 9014 3e3e
00000210: ef8d 0abf 021c 5f3e ab51 d63c 05c9 133f
00000220: 3dcc be3c d50d 8a3e fe79 12be 1d4f 81be
00000230: 323c b73e 055c 273e 5527 d13c 9db9 733d
00000240: 2a4c 9d3e fe84 1cbf 4e70 69bc 6c17 15bf
00000250: c645 263e 8568 d63e 3bd2 4b3d 5d71 19bf
00000260: e24f 223e dd97 c23d 53fd 9b3e 273b 12bd
00000270: 2167 f8be 980f 9d3e 11dc 0bbf 3ad3 f4be
00000280: 74e4 27bf 659d ebbd 5c90 eebd 3966 3dbf
00000290: 8f68 4fbd e438 a3be ea42 6abd 0601 693d
000002a0: 716f dcbe 8c96 15bf b6f6 cb3e f2c4 abbe
000002b0: 45be 1fbe 6547 a3be 4e10 dabd 6bee 1fbb
000002c0: 70df 2d3d 5918 04be b6cf 883e bb83 023e
000002d0: a48b fe3e c197 f8be 4f7c aa3e 46ed bdbe
000002e0: e6cc 02be aab1 e53d ae19 a1be cc51 d0be
000002f0: 31e2 ca3d c762 763e 1240 923e 6968 9b3e
00000300: 2d19 43be b577 0f3e 041f 123f 41b3 8d3e
00000310: 442e 323e e924 43bd 00c3 83be 710d 1bbe
00000320: 76d4 173e 179a e03d e613 55be 7f11 b0bd
00000330: f733 e03d 9126 6dbe 6a3e 83be 418e 2d3f
00000340: dc7d 043e e828 d3be 1923 83bf e665 2dbf
00000350: 21b6 013f f259 13bf 9151 c83d 160c efbe
00000360: 13b0 13bf f590 4ebf ae4d 83be daa5 2c3d
00000370: b00e a63c 65fa 413e 4c2e 4d3e 5cce 0abe
00000380: 47d5 053f 1a29 f83d 8d8d bcbe cfb5 92bf
00000390: 8ce0 15bc eeb3 893e 0bd9 b3be 1897 0abf
000003a0: 27fb 523e 36dd c13e 8c62 233e 77bf a6be
000003b0: 6497 123e 90ab 453f a9f9 83be 4db1 923c
000003c0: 4161 98be 2b20 a73e db9d 8f3e 8bcd 133e
000003d0: 76f1 a93e 0723 53bf 1588 abbd 5b16 febe
000003e0: 4aaa 40be a1ce 783e 2d36 2cbf 006a 013e
000003f0: c282 64be df93 5d3e 3a3a cb3d 6b6a feba
-0.5821063 -0.36938325 -0.38750684 -0.5303043 0.195189 0.20830928 -0.59812146 0.15453842
0.07129424 0.20644651 -0.6305396 -0.5123494 -0.10098018 0.08656116 0.3526824 -0.5080794
0.41398013 0.19693205 -0.08039388 -0.421898 0.182851 -0.15631084 -0.3837006 -0.40862113
-1.09046 0.044804838 0.34274936 0.0038046062 0.070857584 0.0649313 -0.50549704 -0.4257466
-0.03784766 0.12387514 -0.28855762 -0.19647712 0.31982246 -0.07558303 0.474002 0.038889874
-0.4423758 0.3799957 -0.12522934 -0.3281901 0.4499189 -0.11507515 0.172793 0.4948523
-0.9730934 -0.23020083 0.24500309 0.09581473 -0.34590745 0.3545108 -0.7551307 0.1542725
0.4704265 0.4770835 -0.088730335 -0.048784465 -0.15546317 -0.75559735 0.40325013 -0.5301691
0.08444047 0.36817485 -0.08570853 -0.8056179 -0.17885444 0.2596087 -0.33092704 -0.110230215
-0.31909317 0.6313554 -0.13011442 -0.4133544 -0.018805439 0.16963983 0.2834065 0.378357
0.2576099 -0.1219012 -0.016749518 0.1679108 -0.33622968 -0.38681647 0.24441634 -0.18643777
-0.12783223 0.18751606 0.1844449 -1.1126946 -0.10560509 0.24199522 -0.088650994 0.0995556
-0.39898556 0.20063487 0.27848363 0.3450978 0.3826976 -0.32426056 0.2613091 -0.07107657
-0.39864805 0.062772244 -0.42052916 0.25904408 -0.35556334 -0.17797855 0.09583335 -0.98063445
0.37752298 0.23430032 -0.6237189 -0.012858506 -0.039222926 0.0995383 0.082857035 0.3500769
-0.13077955 -0.11385031 0.5072806 -0.25432482 -0.20860304 -0.5238724 0.17257212 -0.5124377
0.9385672 0.29518571 -0.10565082 0.18562531 -0.54122823 0.21788028 0.02616199 0.57728606
0.023290748 0.26963678 -0.14304349 -0.2525567 0.35788113 0.16343696 0.02553145 0.059503186
0.3072217 -0.6114043 -0.014247967 -0.58238864 0.16237554 0.41876617 0.04976104 -0.59938604
0.15850785 0.09501622 0.3046671 -0.035700943 -0.4851618 0.3067596 -0.5463267 -0.47817403
-0.65582967 -0.1150463 -0.11648628 -0.73984104 -0.050636824 -0.31879342 -0.05719272 0.05688574
-0.43053773 -0.5843284 0.39836663 -0.33548695 -0.15599926 -0.31890407 -0.10647641 -0.0024403583
0.042449415 -0.12899913 0.2672097 0.12745564 0.49715912 -0.4855328 0.33297965 -0.37095088
-0.12773475 0.11215527 -0.31464905 -0.40687406 0.09906424 0.24061118 0.28564507 0.30353096
-0.19052573 0.14010508 0.57078576 0.27675822 0.17400461 -0.047642622 -0.2573471 -0.15141846
0.14827141 0.1096689 -0.20808372 -0.08597087 0.109474115 -0.23159243 -0.25633556 0.6779519
0.12938637 -0.41242146 -1.0245086 -0.6773361 0.5066853 -0.5755912 0.097811826 -0.46688908
-0.5769054 -0.80689937 -0.25645202 0.042150356 0.020270675 0.18943174 0.20037192 -0.13555282
0.5227856 0.121172145 -0.36826745 -1.1461734 -0.009147774 0.26895088 -0.35126528 -0.541368
0.2060362 0.37864083 0.15955561 -0.3256795 0.14315563 0.7721491 -0.25776413 0.01790681
-0.297617 0.3264173 0.28050122 0.14433877 0.33192033 -0.8247532 -0.08375565 -0.4962643
-0.1881496 0.24297573 -0.67270166 0.12638092 -0.22315505 0.2163844 0.09923215 -0.0019410377

arith.constant1 f4 [64, 128]
00000000: fbd1 083f 52bb 24bd 15c9 ea3d a12d 11be
00000010: 6993 303e 8c7d 80be 53be 583d ef02 b63e
00000020: 66c7 da3c 7ed4 5f3c 91a0 13be 0c44 fe3d
00000030: cdcd 43bd 86f0 86bd 69ed 1cbe 62eb 57bf
00000040: 79e8 ffbb bd6a 013e 58bc 68bd 6a72 28bf
00000050: 86eb 523e e7ab aebd 0136 34be 106b b1bd
00000060: a676 e6bd 9167 50bd 81f3 a8be 13ba a23e
00000070: 4f81 b83c a1a2 423e 4a87 703e 6ec5 5cbd
00000080: 60b4 0c3e 4b53 073e 2ed5 a23e 9338 5bbf
00000090: 3016 193e 56c5 6bbe 7f6f 0bbe 3293 8d3e
000000a0: 582d a03e 702d bebe cf96 a13e 3110 4b3e
000000b0: a9f5 45bf 1190 a63e b7bb 85be 73db 0dbd
000000c0: 87cc 57bd 55a2 cc3c 30c6 9c3e 80e8 013c
000000d0: 495c 93be 3ce9 eabc 84b3 0ebf b0bd e6be
000000e0: 62c4 e9be d1b7 16bf e346 233f 0f9e 23be
000000f0: e8c2 933d 6f94 9bbf a93f a3bc fe77 f9be
00000100: 2d45 7d3e c3cb 4b3e 43d8 16be 7395 893e
00000110: a790 08bf e45e 64bd 848a 46bc d993 b6be
00000120: 0bf6 77bd 43fb cdbe 2eac 3cbf 7455 90be
00000130: 50f0 053f e1b3 293e 5b53 8dbe 420c afbe
00000140: 9c7a a8be 41dd 733e c076 34bf 4a7c a73e
00000150: 5d59 2c3e ea07 13be c148 04bf 5144 97be
00000160: edcf 67be 8b07 9fbd aa03 d8bd 8c97 32bb
00000170: e6e7 cf3d 905d 42bf 0ffd f13e 8cc2 503e
00000180: 9e1f 4cbd ccf4 1e3e f053 89bd 091f b0be
00000190: a1cb 4a3e fe60 843e 1a47 22be 1a75 b7bd
000001a0: 8ee6 853e b334 19bf c3ce dcbe a84c 503e
000001b0: cd51 b4be d185 80be eed1 ffbe 58d2 f7bc
000001c0: 682c 14bf d042 fc3d bb58 7e3e 0b7b 873e
000001d0: 7e13 fa3e 781c 043e 87d2 d7bd e441 d2bc
000001e0: 86d0 5bbe 9c6c f7bd 7d0e f53e a102 403e
000001f0: 2392 763e e77b d23e 7875 0f3e a41f 52bf
00000200: 01f1 7c3e df61 c9bd cab2 203e 3739 3ebf
00000210: b6ac c33c 4168 6d3e 54d4 60bd 8c69 fd3d
00000220: 7647 11be b61b aabe 64b1 b7bd ec09 32bd
00000230: 3b65 6bbd fd30 05be 84a3 73bf bf78 25bc
00000240: 960c 603d 66a0 023e 2e43 543e 200c 7cbe
00000250: ba14 763d c809 e03c bfc7 3d3e ace2 cf3d
00000260: b1c5 823d 74cb 613e 0970 1a3e a1a7 f23c
00000270: 7351 053e 3654 613d c649 9e3e 5cfb aabe
00000280: eaca 8d3e b2c1 963c 7d3a b13e 7377 c6be
00000290: 97b8 2f3e 32ca db3d b075 c7be 0bb7 e63d
000002a0: 7153 c93e 78cb b93e 86c9 b13e 4bd8 19be
000002b0: 3751 9e3c 83f8 fa3d b660 663e 9817 213e
000002c0: ffe4 093c d5fc fa3c 457e 9a3e 11a9 613d
000002d0: df06 173d 3af5 613e 8d17 3f3f f7cf 6cbe
000002e0: 66b5 793e c378 a3be 10aa 833e 4135 16bd
000002f0: 32c0 7d3e 7f58 1ebf 5562 a8bd 1757 e33d
00000300: dc3c bebd e394 8cbc 4739 84be 043a 3e3e
00000310: bcd5 e13d 3d90 853e ba64 8f3e 8b5c 803e
00000320: a67b 733e fd19 753e 9089 9c3e 2526 03be
00000330: 22d1 083f 83db de3c 4db7 773f 624c b43e
00000340: e21a a53e 7229 e7bd e787 d63d 0fd8 f13d
00000350: bb5f 27bd c576 39bc e9c0 a8be feed f33d
00000360: c390 bb3e 95de 9cbd a52b 14bf 31e1 80bc
00000370: 6914 13be 1ffc 21be 123e 153f d095 40bd
00000380: 9a02 e9bd d514 c03e f13f cc3e e6f3 593e
00000390: 9cea dabd afcf 793e 21c3 d53c 6000 323e
000003a0: f479 843d 071d 22be 7720 7e3e c4dd 213e
000003b0: 1980 523e b660 fdbd 2eaa a6bd 8643 afbe
000003c0: 4d95 a8bd c0f9 c1bd 5a9c abbd ff36 943d
000003d0: 06e5 de3e 7884 073f d9d2 f53d 9940 0c3b
000003e0: 0751 cf3e 27d2 933e d580 6f3f 1ef5 593e
000003f0: bab3 953d 3185 cb3e ae09 083f d9f6 96be
0.53445405 -0.040217705 0.114641346 -0.14177562 0.17243733 -0.25095785 0.052915882 0.35549113
0.026706409 0.013661502 -0.1441672 0.12415323 -0.04780369 -0.06588845 -0.1532494 -0.8434354
-0.0078096953 0.12638374 -0.056820244 -0.6579958 0.20597658 -0.085288815 -0.17598726 -0.08662999
-0.11253099 -0.05088002 -0.3299828 0.31782588 0.022522597 0.1900735 0.23489109 -0.05389922
0.13740683 0.13215367 0.31803268 -0.856332 0.1494987 -0.23024496 -0.13616751 0.27651364
0.31284595 -0.3714404 0.3156037 0.19830395 -0.7732797 0.3253179 -0.26119778 -0.03463311
-0.052685287 0.02497975 0.30619955 0.0079289675 -0.28781345 -0.028675668 -0.5574267 -0.45066595
-0.4565764 -0.5887423 0.6378004 -0.15978263 0.0721491 -1.2154673 -0.019927816 -0.4872436
0.2473342 0.19901948 -0.14730935 0.26871833 -0.5334572 -0.055754557 -0.012117986 -0.35659674
-0.06053738 -0.4023076 -0.73700225 -0.28190196 0.5231981 0.16572525 -0.27602658 -0.3418904
-0.32906044 0.2381487 -0.704937 0.32712013 0.16830964 -0.14358488 -0.51673514 -0.2954431
-0.22637911 -0.077651106 -0.10547574 -0.0027250974 0.10151653 -0.75924015 0.4726338 0.20386714
-0.04983484 0.1552307 -0.06705463 -0.34398678 0.19804241 0.2585525 -0.15847436 -0.08957882
0.26152462 -0.5984604 -0.43126497 0.20341742 -0.3521866 -0.25102094 -0.4996485 -0.030251667
-0.5788026 0.12317431 0.24838535 0.26461062 0.48842996 0.12901485 -0.10538202 -0.025666185
-0.21466264 -0.120812625 0.47862616 0.18751003 0.24079184 0.41110155 0.14009655 -0.8207953
0.2470131 -0.098331206 0.15693203 -0.7430605 0.023886066 0.23184301 -0.054889992 0.12373647
-0.14187416 -0.33224267 -0.089693815 -0.043466493 -0.057469588 -0.13006969 -0.9517138 -0.010099589
0.054699503 0.127565 0.20728752 -0.24614 0.06007836 0.027348414 0.18533228 0.10150656
0.06385363 0.22050267 0.150818 0.029620947 0.13019352 0.05501195 0.3091566 -0.33394897
0.27693874 0.018402908 0.34614936 -0.38763008 0.17160259 0.10731925 -0.38956976 0.112653814
0.39321473 0.36288047 0.34724063 -0.15023915 0.019325836 0.12254431 0.2249783 0.15731657
0.008416413 0.030638138 0.3017446 0.055092875 0.036871787 0.22066203 0.7464531 -0.23126207
0.24385604 -0.3192807 0.25715685 -0.03667188 0.24780348 -0.61853784 -0.0822188 0.111005954
-0.09288952 -0.017160838 -0.2582495 0.18576819 0.11027095 0.26086608 0.28006536 0.25070605
0.23777637 0.23935695 0.30573702 -0.1280752 0.5344411 0.02720428 0.9676407 0.35214525
0.32247072 -0.11287202 0.1047514 0.11808788 -0.04086278 -0.011319821 -0.3295968 0.11910628
0.36633882 -0.07659642 -0.57879096 -0.01573238 -0.14363255 -0.15818833 0.58297837 -0.047017872
-0.11377449 0.37515894 0.39892533 0.21284446 -0.106892794 0.24395631 0.026094021 0.17382956
0.06468573 -0.15831386 0.24817072 0.15807253 0.20556678 -0.12371962 -0.08137928 -0.34231204
-0.08231602 -0.09471464 -0.08379431 0.07237052 0.43534106 0.52936506 0.120031066 0.0021400808
0.40491506 0.2887127 0.9355596 0.21284911 0.07309671 0.39750054 0.5313977 -0.29485205

arith.constant2 f4 [128, 256]
00000000: 4839 f9bd 201c ef3c 7c66 cabe d85f fcbd
00000010: 9c40 52be af1d 313e 1927 7b3d 32c5 53bd
00000020: 2070 083c fb44 f03c 9c9c dd3d 5060 dbbc
00000030: 6daa 9ebc 9b06 eb3d 8bcd 923c 0050 ebb8
00000040: f07b bf3d a341 683e 602e 1bbc 98c1 2cbf
00000050: eaf3 883c 47ea 493e 7190 debe c8df 18bd
00000060: 4b17 88be b7a5 cb3d 3b96 b8be e978 a9bd
00000070: a246 813d 7c70 143e f8a9 83bd a06b d2ba
00000080: bc7f d53d 4fda 723e 4c99 8bbd 66e6 99bd
00000090: e516 023d d4e6 b0bd eb41 213d 0872 04bd
000000a0: 671a 87bd 3457 b83d 48c9 c13d 9a76 7cbe
000000b0: 129b c33d 2080 c3bd 1f9b 4ebd a5ce 3a3e
000000c0: c052 233c f2b1 c33d 8854 a8bd 7ec8 8bbe
000000d0: ce02 88bd a018 79be 8fa0 2f3d 2559 a5bd
000000e0: 5662 48be 8061 693c 48d6 4bbd ba6d 853b
000000f0: f245 32be 18b3 853d 4f5a ca3e e86b 1ebd
00000100: 8cc0 093e 2b1e 9bbd 409b 5bbc 51ef a4bd
00000110: 1059 3ebe 373c c8be 0917 cf3d 262f d0bd
00000120: 0180 9dbd 80f2 f53d b45c ad3d d99a 88be
00000130: b2e1 27be e489 523e c544 febc 90c6 c23d
00000140: 1f05 92be 1f08 883d 3bf9 5a3d aff6 b23c
00000150: 9b82 953d 88ff dabd c583 a2be 4e44 1f3e
00000160: 2bfa 0bbe 500b abbd 346d 8bbc b371 7d3d
00000170: 0fd0 a8be 1173 e53d 5b33 e73d b0f6 80bc
00000180: 3e6a ebbc 02c5 783e b47a fd3d 8103 183f
00000190: 1768 f43d d4f0 8fbd 9a12 9c3d dc94 bcbe
000001a0: 4ecf 02be c490 513d 6dcd 2bbf 8472 cfbd
000001b0: 2994 b7bd 6044 eb3c 0750 03be 8492 dd3d
000001c0: a472 ff3d 8c87 fabe c0b8 803b fafb 793e
000001d0: 7e43 e6be e958 873e 6ace 463c d467 033e
000001e0: 4052 d43e 65c9 0c3e 5027 9ebc 806b 73bd
000001f0: c5ee 833c ac63 cabd c317 32be f8a3 4fbd
00000200: 81ce b73d 2b4c 1ebe 9b79 38bd d48f 9ebd
00000210: 0028 02bc c06d d13d f0c1 72bd a9b9 693d
00000220: a0ef 693c b6f1 dc3d 7b6c 03be 6c2c ed3d
00000230: 853f cdbe 0001 fa3b b895 4cbf 6384 75be
00000240: f0c1 1b3d 1f6c e33d 150e f0bd bfc6 2e3e
00000250: 256b 5fbf 242c 05bd aca8 a13d 0a99 8c3d
00000260: 670a 3a39 b09a b2bd 48fa b03e bf7d 3bbf
00000270: 8430 503e 062b 75bc 60dc 6d3c cb59 e4bd
00000280: e012 ddbd c87e 94bd e484 d9bd 28b5 ae3d
00000290: 40bb 0a3c 0fd8 c0bb 6534 2cbf cd24 613d
000002a0: bd40 9abe 5af7 503e 206d cebc 0044 ceb9
000002b0: a46e 843d 372b 16be 86dc bc3c 91be d63d
000002c0: 0928 0c3e 047e a1be 2e34 7ebe fce8 b33d
000002d0: a743 c1be 50a7 b8bd deda a9bd 014c 6f3e
000002e0: 51e6 d4bc 63b7 823d 228d 8a3e ad92 943e
000002f0: 189d 1dbd 029f bebd 72a7 253e fc32 693d
00000300: af3d 863e 3162 12bd 92d1 1e3e ad15 02bf
00000310: 580e bcbd 436c db3d 3b5e b2bd a862 e23d
00000320: d32a dc3e 0060 0dba 168b 253e 107e 923d
00000330: c0ab 1ebd 2c13 323d a2fb f4bc 3b7c 803d
00000340: a3cb 613b 3566 05bf d578 193e a4c5 873e
00000350: 24f0 0ebf ecf6 1bbe 0cd6 febd 9583 813e
00000360: 1833 d13c d000 ddbd c0bf a73c 43dd d0be
00000370: b88a 933d 5d9c de3d 8576 6b3d 8054 b6bc
00000380: 50ca 3dbd 1ec2 06be 073c c6be e228 8d3d
00000390: 2330 db3e 88a2 ba3d 00c6 fdbd 2641 5abd
000003a0: 1eba 49be cc6b e53d 825f 983e 45c2 9d3d
000003b0: 98f9 20bd 06c4 7b3c a470 bcbd 4008 813c
000003c0: 7e45 26bd 24a3 d83d 0080 1338 23fa 0cbe
000003d0: 1e2c 293b a184 a63e 1016 a33d 30d1 abbc
000003e0: 5099 a2bc c0a4 993b 289b d33e 8caa 7a3e
000003f0: 483f 823d 65b7 16bd 15a9 e9bd e076 063c
-0.12169129 0.029188216 -0.39531314 -0.12322968 -0.20532459 0.1729648 0.061316583 -0.051701732
0.008327514 0.029329767 0.108208865 -0.026779324 -0.019368375 0.11475869 0.017920276 -0.000112205744
0.09349811 0.22681288 -0.009471506 -0.674829 0.01671787 0.19718276 -0.43469575 -0.03732279
-0.2658027 0.09943717 -0.36052117 -0.08275015 0.063123 0.14496034 -0.06428903 -0.0016053803
0.10424754 0.2371609 -0.068163484 -0.07514648 0.031760115 -0.08637777 0.039369505 -0.03233531
-0.06596833 0.09001008 0.094622195 -0.24654618 0.09551062 -0.09545922 -0.050440904 0.18242891
0.00996846 0.09555425 -0.08219248 -0.273014 -0.0664116 -0.243258 0.04287773 -0.080736436
-0.19568762 0.014244437 -0.0497649 0.0040719183 -0.17409495 0.065283 0.39522025 -0.038677126
0.13452357 -0.075741135 -0.013403714 -0.080534585 -0.18588662 -0.3910844 0.101118155 -0.10165243
-0.076904304 0.12009144 0.08464947 -0.2668064 -0.1639469 0.20560414 -0.031038651 0.09510529
-0.28519532 0.06642174 0.05346034 0.021846144 0.07300302 -0.1069327 -0.31741157 0.155534
-0.1366965 -0.08351767 -0.017019846 0.06187601 -0.32971236 0.11203588 0.11289092 -0.01574263
-0.028737184 0.24293903 0.123769194 0.59380347 0.11933916 -0.07028356 0.076207355 -0.3683232
-0.12774393 0.05116345 -0.6711033 -0.10129264 -0.08963806 0.028719127 -0.12823497 0.10818961
0.12473038 -0.4893154 0.003928274 0.24412528 -0.44973367 0.2643502 0.012134174 0.12832576
0.41469002 0.13748701 -0.019305855 -0.059428692 0.016105065 -0.09882292 -0.17391877 -0.050693482
0.08974934 -0.15458743 -0.045037847 -0.07742277 -0.007944107 0.10226011 -0.059266984 0.057061825
0.014278322 0.1078829 -0.12834351 0.115807384 -0.40087524 0.0076295137 -0.7991595 -0.23976283
0.03802675 0.11104607 -0.11721436 0.17068003 -0.87272865 -0.0325128 0.078935 0.068651274
0.00017742217 -0.087209105 0.3456595 -0.7323875 0.20331007 -0.014963871 0.0145178735 -0.11149939
-0.10794616 -0.07250744 -0.1062105 0.085306466 0.008467495 -0.005885131 -0.6726745 0.054966737
-0.30127516 0.20406857 -0.02519852 -0.00039342046 0.064664155 -0.14664923 0.023054373 0.104855664
0.13687147 -0.31541455 -0.24824592 0.087846726 -0.37746927 -0.09016287 -0.08293699 0.23368837
-0.02598873 0.063826345 0.270608 0.29018155 -0.038479894 -0.09307672 0.16177157 0.056933388
0.26218936 -0.035738174 0.15509632 -0.50814325 -0.09182423 0.10714009 -0.08709379 0.110539734
0.43001422 -0.0005393028 0.16166338 0.07152951 -0.038738012 0.043475315 -0.029905144 0.06273695
0.0034453652 -0.5210908 0.149875 0.26517975 -0.55835176 -0.15230912 -0.1244317 0.25295702
0.025537059 -0.107911706 0.020477176 -0.4079381 0.07204193 0.10869668 0.057486076 -0.02225709
-0.04633552 -0.13159987 -0.38717672 0.068925634 0.42810163 0.091130316 -0.12391281 -0.053284787
-0.19699904 0.11202201 0.29760367 0.077030696 -0.03930053 0.01536656 -0.09201172 0.015751004
-0.040593617 0.105779916 3.516674e-05 -0.13767295 0.002581365 0.32523063 0.079631925 -0.020973772
-0.019848496 0.004688829 0.41329312 0.24479121 0.06359726 -0.036795992 -0.11409203 0.008207053

arith.constant3 f4 [14]
00000000: 615b 60bc 6d1d d7bd 02de 683c 7da3 2c3e
00000010: 3e7b 183e d387 a63d b934 363d dda1 22be
00000020: 33b3 113e ee0a 40bd 7fdc bc3d 409a 173e
00000030: fb70 7abf b30e f53d
-0.013693661 -0.105036594 0.014213087 0.16859241 0.14890763 0.08131375 0.044483874 -0.15882058
0.14228515 -0.046885423 0.09221744 0.14804935 -0.97828645 0.11965694

arith.constant4 f4 [64]
00000000: e3f3 183e 3f5e 5fbd 8bfa 683e 44da 003f
00000010: f80b ce3e 7581 94be aafb b53d bf31 f43d
00000020: 6d2d ad3e 0051 be3d f9cf 2c3e 9ae5 323e
00000030: 19b6 b33e 38ae e33e 79e0 f33b ff0c 37be
00000040: 01c9 383e f70c 013f 1f0f ef3e c354 5bbe
00000050: 2b59 2ebd b7a0 a23e 1326 8e3e 5952 733e
00000060: e7de 243f b36f 993e ea40 d9bd 2d6b a63e
00000070: 2958 b93d 02ce 2cbd 08c1 c13d 5724 f4bd
00000080: 9c96 213e db43 ff3e ca76 203c 394c 3abf
00000090: 62d5 bcbd 8cba e7bd 2130 093d 6ea2 97bd
000000a0: 65d4 703e a25f e93c 4460 02bf 66d4 063e
000000b0: e935 963e 3675 1bbe e47d e43e 9fe0 4a3f
000000c0: 3e49 fd3e 1e3f eb3e e60c 893d dca0 6bbe
000000d0: 54de f93d 58ab c7be 9947 923e 2129 cebe
000000e0: 722e 173d b79a d23e 62e1 cd3d e387 1a3f
000000f0: bc59 ebbd a264 103f 4227 133e ae1f 263d
0.14936785 -0.05453324 0.22751825 0.50333047 0.40243506 -0.29005018 0.08885892 0.11923551
0.3382372 0.09292793 0.1687621 0.17470399 0.35099867 0.44468856 0.0074425307 -0.17876051
0.18045427 0.5041041 0.46691224 -0.21419053 -0.042565506 0.3176324 0.27763423 0.23761882
0.6440262 0.29968032 -0.106080845 0.32503644 0.09050018 -0.04218865 0.09460646 -0.11920994
0.15780109 0.49856457 0.0097939465 -0.72772557 -0.09220387 -0.11314878 0.033493165 -0.07404028
0.23518522 0.028487984 -0.5092814 0.13166961 0.29338005 -0.15181431 0.44627297 0.79248995
0.49469942 0.45946592 0.06691913 -0.23010582 0.12200609 -0.38997912 0.2857025 -0.40265754
0.036909528 0.41133663 0.10052754 0.60363597 -0.11491725 0.56403553 0.14370444 0.040557556

sequential_1/dense_1_2/BiasAdd/ReadVariableOp f4 [128]
00000000: 9a5e 47be 6978 77be f5b4 a33e ac4a a73e
00000010: 536b 8d3e 1d1a abbe d1b1 f73d f886 423e
00000020: d8e5 17bd 669d ddbd dd34 6a3d d69b 9dbd
00000030: 4674 363e 6bfc 7f3e fe74 d33e 4af5 1dbe
00000040: f5ea 043c 9dce 633e 0588 a43d e5c9 24bc
00000050: 45f5 4f3e b52b 403d 4184 1dbe 07da bb3d
00000060: e1b8 d4bb 5b0c 3abe e781 5e3d 6304 d23b
00000070: ff62 cdbd 621b fb3c 4cfa 62bd 0bcd 873e
00000080: 2e27 08be 9184 093e 4e70 203e b029 633d
00000090: 1db7 213d 1772 843d 4919 703e b3c1 0a3e
000000a0: c5b3 193e 6132 a63d c242 0fbe f5a8 19bd
000000b0: 1871 c83e f6a5 693d 1fb1 febe ae87 523d
000000c0: 2c99 92be e773 833e 01f8 0e3d f89d 3f3e
000000d0: 0b61 03be d941 c53d e4b2 bfbd 4354 a63e
000000e0: c294 08bd 3234 0e3e b636 d8bb e61b 103d
000000f0: 2530 323d 27de 423e c011 233e d452 843d
00000100: 82fd ebbd cea3 a63d f3b5 da3e 56f1 00be
00000110: 27b0 b9be f49c 803c 73b2 693e 3ffd 16be
00000120: 1e7e c13e 111a 3fbf 7822 acbe a34d 853d
00000130: 85e7 653e 5a48 b9be b1bc 75be 0c5d e1be
00000140: 9a40 0cbd ba81 943d 0dab 3c3e 5076 213e
00000150: cbaf 51be 4b95 0abe 6d4e 7dbb 6879 253e
00000160: 3a8a 5bbe eece 99bc 8247 9b3d 8594 2cbe
00000170: 2336 a13e 8ef2 56be bee6 853e 3524 c73d
00000180: d9f0 a93e c02e 103d c030 6d3e 1301 72be
00000190: 0948 8d3e b799 1ebe 51bf c1bd dbcf 92bd
000001a0: 93af d93c 42e1 213e 9417 c8be 2cc3 98be
000001b0: 74bb b0be 1c78 693e d453 e1bd 90b8 f0bd
000001c0: 001d 54bc 5788 a53d d724 debe 9ec3 d5be
000001d0: 6381 003e 008a 03bc 0a93 b4be 37cc 423e
000001e0: ee85 27bd aacc d1bd 6204 aebd 5948 4f3e
000001f0: 9c67 eb3d 6ced eb3d 8182 313d 5870 bdbd
-0.19469681 -0.24167027 0.31973997 0.32674158 0.27620944 -0.3341836 0.12094463 0.18996799
-0.03708443 -0.10821037 0.05717932 -0.07695739 0.17817792 0.24998634 0.41300195 -0.15425602
0.008112659 0.22246785 0.08033756 -0.010057901 0.20308407 0.046916682 -0.15382482 0.09172445
-0.006491766 -0.18168776 0.054323103 0.0064092143 -0.10028648 0.030652706 -0.055414483 0.26523623
-0.13296196 0.13429476 0.15667841 0.05545968 0.03948127 0.064670734 0.23447146 0.13550453
0.15009983 0.08115078 -0.1399031 -0.037514646 0.39148784 0.05704304 -0.49744508 0.051398925
-0.28632486 0.25674364 0.034904484 0.18712604 -0.12829988 0.096317 -0.093602926 0.32486162
-0.03334499 0.13887098 -0.006598319 0.035182856 0.043502945 0.19030057 0.1592474 0.06461111
-0.11522962 0.08136712 0.4271694 -0.12592062 -0.36267206 0.015699841 0.22821979 -0.14745043
0.37791532 -0.7464915 -0.33620048 0.06508949 0.22451599 -0.36188012 -0.23997761 -0.44016302
-0.034241296 0.07251306 0.18424626 0.15767789 -0.20477216 -0.13533513 -0.0038651482 0.16159594
-0.21439448 -0.01877543 0.075819984 -0.1685353 0.31486616 -0.20990965 0.26152605 0.09723703
0.33191565 0.035200834 0.23163128 -0.23633222 0.2759402 -0.15488325 -0.09460319 -0.071685515
0.026572978 0.15808585 -0.3908049 -0.29836404 -0.34518015 0.22799724 -0.11002317 -0.117539525
-0.012946367 0.080826454 -0.43387482 -0.41750807 0.12549357 -0.008028507 -0.35268432 0.19023214
-0.04089921 -0.10244115 -0.0849693 0.20242442 0.11494371 0.11519894 0.04333735 -0.092499435

sequential_1/dense_1/BiasAdd/ReadVariableOp f4 [256]
00000000: 0000 0000 0000 0000 a7bb 5e3d 0000 0000
00000010: fab0 25be f518 e2bd b8ef 363e f374 4ebc
00000020: 0000 0000 8999 f5bb 9283 a7bb 0000 0000
00000030: b018 86be b254 2fbe 69fc aabc 0000 0000
00000040: 0000 0000 4150 7abe 0000 0000 ad0d ff3d
00000050: 0326 81bc 0d85 9dbd 13c3 8e3d 0000 0000
00000060: 7a0a c7be fcca d0bd 444d 543e 6bd6 7cbc
00000070: 62b1 7c3d 2dec 533d 0000 0000 3643 363d
00000080: 0000 0000 8503 51be 89f7 083e cba8 c4bb
00000090: 7e81 05bc 0000 0000 697e 703e 0000 0000
000000a0: fc3c 86bc 5b9f 27bd 0000 0000 012b 303e
000000b0: cab4 19bc 01aa afbb 5057 12be c252 143e
000000c0: 0000 0000 e582 5ebe 0000 0000 7d24 a3be
000000d0: 8639 d5bb c8e2 913d e34c ee3d 10d9 b13d
000000e0: a9d9 99bc fc9e c4bb 0000 0000 e49b debb
000000f0: 1817 acbd aa24 0fbc aa8a 0dbe 0000 0000
00000100: 03aa 803d 9ebc 8ebd 9913 b6bb 6954 5e3e
00000110: d259 0f3e 4749 0ebe 8bd5 4abe 1cbd abbd
00000120: 0250 d6bc 0000 0000 70e1 87bc 6d84 7cbe
00000130: cc24 85be 6327 a2bc 5724 39bd e2cd 13bd
00000140: 9df6 d63d 03c2 183e 8a9e f0bc 45da 6fbc
00000150: bf2d cbbd 47ba 993d bd5b 86be 4c57 9bbc
00000160: 59e4 02bc db45 cfbb 2a4e 69bc 0beb 38bb
00000170: 6ab8 6bbe 090d afbc f1a4 613e 0000 0000
00000180: 5fe5 a33d 8c89 23be 3c87 88bb 4297 00be
00000190: b992 4cbd fb84 26bc 32d1 113e 61e7 73be
000001a0: 00a2 d5bb 6261 043e 433a c13c 3391 1b3e
000001b0: f4f2 3e3d 0000 0000 2835 a8be ef43 02bc
000001c0: 80d8 a3be 478d b33c 0000 0000 bcc0 5fbe
000001d0: 250b 3f3e 1369 653e 3ea3 253c b8b0 c73d
000001e0: a3cf 673d 1441 bd3d b6ec adbb debf d63c
000001f0: 145c 8fbb ca62 8bbb ee34 503d 0000 0000
00000200: ba9c c4bb bb08 3abd 93cf 14bd 0000 0000
00000210: 0000 0000 5b67 a8bb 0000 0000 cf6b 72be
00000220: 0000 0000 ae84 25be 6b92 a0bd 0000 0000
00000230: 853a dbbd 0000 0000 a506 93bd c7b9 153c
00000240: 0000 0000 d16f c6bb 7977 d2bb 74b1 47bd
00000250: 6856 6abd 14ec e2bb 0000 0000 c371 d4bb
00000260: f168 68bd 0000 0000 cc89 803e bddf a93d
00000270: a315 043e 3f6f fbbb c1cc bbbc 9859 2f3c
00000280: 0000 0000 0000 0000 0000 0000 0000 0000
00000290: 0000 0000 912f c5bd 4b0a 97be f401 fb3b
000002a0: 02cb bebd 364e c13b be09 74be 0000 0000
000002b0: 89b1 90bc 96e5 53be 4853 6b3e 8c7b 23bd
000002c0: 0388 f73d fb9a d23d c13c 4c3c 0000 0000
000002d0: 9153 223e a81d 85bc 4be5 e0bb 0fd3 c9bd
000002e0: 0cc9 cabd 801b c03d fc9f 013d b324 ff3d
000002f0: 0000 0000 64a0 9fbe a237 183e 509b c4bb
00000300: e84d 183e 0273 b4bd 738b bc3e 7355 aa3d
00000310: 0000 0000 061c 47be 61e4 aabc 0000 0000
00000320: f005 b93d 860d afbb d349 88be 357a acbb
00000330: 08e7 13bc a172 bb3d 8a2f 09bc 7966 173e
00000340: 00fd 7d3e 0cc5 233e a707 4f3e df14 f1bd
00000350: cfc4 6fbe 05b9 13bd 3daf 8fbe dc75 023e
00000360: dedf a1be 0000 0000 539d c4bb 8799 cd3d
00000370: 0000 0000 c06f 2dbc 95d4 a5bc 0000 0000
00000380: 7508 6cbc 107b 143d 413f 683e f29b 19bc
00000390: f559 553e 0000 0000 c0fa d73a 6dd1 95bb
000003a0: ed87 1abe 0000 0000 e97c 993d 4c94 2cbe
000003b0: 0000 0000 903f 0d3e 67bc 09bc 0000 0000
000003c0: fe75 73be 0000 0000 0000 0000 4010 183e
000003d0: 2bc1 15bd 3941 6d3d 0000 0000 4961 4abe
000003e0: 2ebb 113e 0000 0000 b439 28be 2c5f cb3d
000003f0: 0000 0000 d581 e0bb f11a 7e3e 0000 0000
0.0 0.0 0.054378178 0.0 -0.16180792 -0.110399164 0.17864883 -0.012601125
0.0 -0.0074951095 -0.00511212 0.0 -0.2619071 -0.17122152 -0.020872312 0.0
0.0 -0.24444677 0.0 0.1245378 -0.015765196 -0.07691393 0.06970801 0.0
-0.3887518 -0.10194966 0.207326 -0.015431981 0.061692603 0.051738907 0.0 0.04449769
0.0 -0.20411499 0.13375677 -0.006001567 -0.008148549 0.0 0.23485722 0.0
-0.016386501 -0.040923458 0.0 0.17203905 -0.009381482 -0.005360842 -0.1429112 0.14484695
0.0 -0.2172962 0.0 -0.31863776 -0.0065071015 0.07123333 0.11635759 0.086839795
-0.018780546 -0.0060003977 0.0 -0.006793486 -0.08402842 -0.008736769 -0.13822427 0.0
0.06282427 -0.069695696 -0.0055565354 0.21711887 0.13999107 -0.1389514 -0.19808023 -0.08385679
-0.026161198 0.0 -0.01658699 -0.24659891 -0.26004636 -0.019794172 -0.045200672 -0.036085017
0.104962565 0.1491776 -0.029372472 -0.014639442 -0.09920835 0.07506233 -0.26241866 -0.018962525
-0.007989013 -0.006325466 -0.014239827 -0.0028216268 -0.23019567 -0.02136852 0.22035576 0.0
0.080027334 -0.15970439 -0.004166512 -0.125577 -0.049944613 -0.010163541 0.14239958 -0.23818733
-0.006519556 0.12927774 0.023587352 0.15192108 0.046618417 0.0 -0.32853055 -0.007950767
-0.32001114 0.021917952 0.0 -0.21850866 0.18656595 0.22403364 0.010109721 0.09750503
0.056594502 0.09240928 -0.005307759 0.026214536 -0.0043749902 -0.00425372 0.050831728 0.0
-0.0060001286 -0.045418482 -0.03633077 0.0 0.0 -0.005139274 0.0 -0.23673938
0.0 -0.16163895 -0.07840427 0.0 -0.10704521 0.0 -0.07179002 0.009138531
0.0 -0.00605581 -0.0064229337 -0.048753217 -0.05721131 -0.0069251154 0.0 -0.006483288
-0.056740705 0.0 0.2510513 0.08294628 0.12898879 -0.0076731737 -0.022924783 0.010702513
0.0 0.0 0.0 0.0 0.0 -0.09628213 -0.2950004 0.007660145
-0.093160644 0.005899216 -0.23831841 0.0 -0.01766278 -0.20693049 0.22980988 -0.039912745
0.12086489 0.102834664 0.012465657 0.0 0.1585219 -0.016249493 -0.0068632714 -0.09854709
-0.09901628 0.09380245 0.031646714 0.12458172 0.0 -0.31177056 0.14864972 -0.00599996
0.14873469 -0.088109985 0.3682514 0.083170794 0.0 -0.19444284 -0.020860853 0.0
0.090343356 -0.0053421883 -0.26618823 -0.0052635917 -0.00902725 0.09152723 -0.008373151 0.14785184
0.24803543 0.15993136 0.20217763 -0.11771559 -0.2341492 -0.03606512 -0.28063384 0.12740272
-0.3161611 0.0 -0.0060002 0.10039049 0.0 -0.010585725 -0.020242969 0.0
-0.014406313 0.036250174 0.2268038 -0.009375559 0.20835097 0.0 0.0016477928 -0.0045720846
-0.15090914 0.0 0.07494528 -0.16853446 0.0 0.13793778 -0.008406735 0.0
-0.23775479 0.0 0.0 0.14849949 -0.036561172 0.05792353 0.0 -0.19763674
0.1423156 0.0 -0.16428262 0.09930262 0.0 -0.0068514147 0.24814965 0.0

sequential_1/dense_1/MatMul f4 [256, 99]
00000000: e4ff 923d a264 cb3d d0e1 133d 00b6 8b3a
00000010: 3440 ae3d 2c94 af3d 8845 afbd 9af8 aabd
00000020: f008 09bc 60ab 19bc f6bf 81bd 6e27 b2bd
00000030: 51a8 01be a4ca 8cbc be45 e03d acb7 7f3d
00000040: 80b9 1d3c 00bb 9bbb 3c78 10bd 68d1 7ebd
00000050: 3c13 fb3d b061 753c a8c5 5dbd 9093 fa3d
00000060: d0bc fcbb b0e5 a3bd b2db ee3d f683 a8bd
00000070: 44a0 c3bd 823e 023e e4ce 443d e65c fabd
00000080: 488a d63c b017 2ebc 10cb 5e3d 4e68 17bd
00000090: 842f d33d 044d 6cbd 4c67 96bd 9aa1 00be
000000a0: be65 94bd a114 ebbd aefd c23d 6894 db3d
000000b0: 28b4 233d 14df 983d 10cf f4bc 28af 7c3d
000000c0: 448f 143d 6015 a53c 3b2a ffbd 98b7 a03c
000000d0: c061 b23b f4e6 8abd ee1e 923d c244 98bd
000000e0: 48f4 e23c 3469 eabd 5243 e0bd fc16 fabc
000000f0: 3d4e 02be e0ec 173d 6a5c 963d 7a7b 57bd
00000100: 68b1 a83c 588d a73c a4d7 9f3d d455 81bd
00000110: d207 9c3d 0036 783a 5e59 5dbd 0079 1dbb
00000120: 1188 febd 8c6a fbbd 089b 2f3d e005 5d3c
00000130: 5807 013e e4cd 913d 1881 a4bd a4eb bdbd
00000140: 648a 3c3d 0825 f33c 7677 a9bd 8e50 99bd
00000150: c4e4 8d3d 80ab 883c 6085 dcbd dcd2 043d
00000160: e0bd fcbb 50c8 bdbb 181d f7bc 40a1 d63b
00000170: b84e 773d feb6 90bd c051 503d 14e4 bfbd
00000180: 5c7e 00be 2025 6d3d 1218 d2bd f66b 923d
00000190: 58b3 933d 011f febd 164d dc3d f14d f2bd
000001a0: b814 8b3c 7b1a e6bd b026 ebbc 907e 8e3d
000001b0: 7489 5a3d 146c b43d 10d2 4a3c 28d8 02bd
000001c0: 7391 e6bd d034 68bd a89a 213d 16db e93d
000001d0: b629 913d 1f04 d0bd b925 b2bd 5c96 ccbd
000001e0: 4400 d23d 6439 d1bc 887d d63c b83e 0a3d
000001f0: 9689 e53d f9d1 eebd ee47 ddbd 19c7 80bd
00000200: 64be 943d 0c82 f0bd b0e3 123c 6340 f8bd
00000210: e002 f43c 2068 af3b 0a11 e0bd 8083 593b
00000220: 58e2 543d 1e32 cd3d 56c4 f5bd 7035 633d
00000230: d134 b8bd 53c8 d2bd 3032 c23c e033 203c
00000240: 1e90 98bd dcc8 e8bd 6ab7 c1bd 065c 90bd
00000250: 4ac2 59bd e45c 433d ecba 88bc 7a57 c43d
00000260: e2e8 b6bd 7f31 02be 070b 91bd f092 05bc
00000270: b89d 0c3d 7e5a 26bd 98f7 f33d b887 a83c
00000280: be2c a83d 682e d5bd 04e7 ff3d b2b7 c33d
00000290: c435 db3d eca3 ec3d aa40 fcbd e207 73bd
000002a0: 3f4d ccbd 4ea2 a6bd 1691 19bd 92cc 033e
000002b0: 1c73 ecbd 249f fc3d 4884 983d 9249 27bd
000002c0: 4749 00be 744b 7f3d c75e e2bd bc40 87bd
000002d0: 2ab1 8ebd 2eeb 77bd 34c7 e13d 0035 6d3b
000002e0: a631 ddbd 6c46 c03d 58bb 6b3d d209 e63d
000002f0: 98e1 f4bc 320a 813d 1c98 c3bc 1eef 46bd
00000300: ea27 fdbd 0a87 953d f8dd 95bc f4d3 21bd
00000310: 345b 543d 801a 813c b4aa e0bd 8074 13bd
00000320: a6b4 c13b 34b4 bcbd 133b a5bd 47d3 90bc
00000330: da6f 01be d67d c7bd 30fe f93c ae58 b0bd
00000340: 7744 2cbe 76f3 38bc 9c0f 28be 6ef9 35be
00000350: dc13 433e d5d1 183c 66b1 8ebd d4c4 003e
00000360: 000d dabd ec47 773d 24fe 903d 6a24 ca3d
00000370: cc36 99bd 2616 75be 15c8 6e3d 5bdf 36be
00000380: dc09 433f 837c 2bbe 7907 03be bc73 6f3d
00000390: a576 9fbd da84 98bd c8b4 343e f6a1 d53d
000003a0: 54a9 e0b9 5268 513f c8a0 a63d 55b1 75be
000003b0: 01d8 e53e d8b4 03bc e441 ca3e 3886 d63e
000003c0: da31 e33d c259 be3d 29c6 bb3d 4116 b53e
000003d0: 16bb 783e b55b 72be 650b ad3e 2422 c1bd
000003e0: 2d9a c9bd a717 963e e662 74bd 2a8a 0bbe
000003f0: 3def cd3e a82c 37be 404a f93d a264 f23e
0.071777135 0.099313036 0.036104023 0.0010659099 0.085083395 0.085731834 -0.08558184 -0.08348198
-0.008363947 -0.009379238 -0.06335442 -0.08698927 -0.12661864 -0.01718647 0.10950802 0.062431023
0.009626746 -0.0047525167 -0.035270914 -0.062211424 0.12259528 0.014976904 -0.054143578 0.122351766
-0.007712938 -0.08002794 0.11662997 -0.082282946 -0.095520526 0.12719157 0.04804887 -0.1222475
0.026188985 -0.010625765 0.054392874 -0.036964707 0.10311797 -0.057690635 -0.07343921 -0.12561646
-0.07245968 -0.11478544 0.09521042 0.107216656 0.039966732 0.07464424 -0.029883891 0.06169048
0.03626944 0.020151794 -0.12459227 0.019618794 0.0054437816 -0.06782332 0.071348056 -0.074349895
0.027704373 -0.11445847 -0.1095034 -0.030528538 -0.12725158 0.037091136 0.07341845 -0.05260799
0.020592406 0.02045314 0.07804802 -0.063151985 0.07618679 0.0009468496 -0.054040305 -0.002402842
-0.12428296 -0.122761816 0.04287246 0.01349017 0.12600458 0.07119349 -0.08032435 -0.092734605
0.046030417 0.029680744 -0.082747385 -0.07486068 0.06928399 0.01668334 -0.10767627 0.032427654
-0.0077130646 -0.0057917014 -0.03016524 0.006549984 0.060377806 -0.07066153 0.050859213 -0.09369674
-0.12548202 0.057896733 -0.10258497 0.07149498 0.072119415 -0.12408257 0.107568905 -0.118312724
0.016977653 -0.112355195 -0.028704971 0.06957734 0.05335374 0.08809677 0.012379184 -0.031944424
-0.11258211 -0.05669099 0.039454132 0.114187405 0.07088034 -0.10157036 -0.08698601 -0.09989616
0.10253957 -0.025540061 0.026182905 0.03375122 0.11207883 -0.11661143 -0.10804735 -0.06287975
0.07262877 -0.117435545 0.008965418 -0.12121656 0.029786527 0.005352989 -0.1094075 0.0033189952
0.05197367 0.10019325 -0.12000339 0.055470884 -0.08994449 -0.10292115 0.023705572 0.009777993
-0.07449363 -0.11366436 -0.094588116 -0.07048802 -0.053163804 0.04769601 -0.016690694 0.09586997
-0.089311376 -0.12714194 -0.070821814 -0.008152708 0.0343301 -0.040613644 0.11912459 0.020572528
0.08211659 -0.10409242 0.124952346 0.095565215 0.10703614 0.11554703 -0.12317021 -0.05933369
-0.09975671 -0.08136426 -0.03749188 0.12871006 -0.11545393 0.12335041 0.07447106 -0.040841646
-0.12527953 0.062327817 -0.110532336 -0.06604144 -0.06967385 -0.06052702 0.11024323 0.003619492
-0.10800485 0.09388432 0.05755171 0.11232342 -0.029892728 0.06300773 -0.023876242 -0.048567884
-0.12361129 0.07301147 -0.01829432 -0.039508775 0.05184479 0.015759706 -0.10970059 -0.035999775
0.0059114276 -0.092140585 -0.08067908 -0.01767887 -0.12640324 -0.09740798 0.030516714 -0.08610664
-0.16822992 -0.011288514 -0.16412205 -0.17770931 0.19050545 0.009327372 -0.0696743 0.12575084
-0.10647011 0.060371324 0.070797235 0.09870227 -0.07481155 -0.2393423 0.05829628 -0.17858641
0.7618692 -0.16746716 -0.1279582 0.058459982 -0.077863015 -0.074472144 0.17647088 0.10431282
-0.0004285077 0.81799805 0.08136135 -0.23993428 0.4489136 -0.008038722 0.39503396 0.41899276
0.11093493 0.09294464 0.091686554 0.3536854 0.24290118 -0.23667796 0.33797756 -0.0943034
-0.0984386 0.2931492 -0.05966463 -0.13626924 0.40221587 -0.17888129 0.12172365 0.47342402
